…
me layers in the base network.\n","#5) Jointly train both these layers and the part you added.\n","\n","\n","conv_base.summary()\n"],"execution_count":null,"outputs":[{"output_type":"stream","text":["Model: \"vgg16\"\n","_________________________________________________________________\n","Layer (type)                 Output Shape              Param #   \n","=================================================================\n","input_1 (InputLayer)         [(None, 150, 150, 3)]     0         \n","_________________________________________________________________\n","block1_conv1 (Conv2D)        (None, 150, 150, 64)      1792      \n","_________________________________________________________________\n","block1_conv2 (Conv2D)        (None, 150, 150, 64)      36928     \n","_________________________________________________________________\n","block1_pool (MaxPooling2D)   (None, 75, 75, 64)        0         \n","_________________________________________________________________\n","block2_conv1 (Conv2D)        (None, 75, 75, 128)       73856     \n","_________________________________________________________________\n","block2_conv2 (Conv2D)        (None, 75, 75, 128)       147584    \n","_________________________________________________________________\n","block2_pool (MaxPooling2D)   (None, 37, 37, 128)       0         \n","_________________________________________________________________\n","block3_conv1 (Conv2D)        (None, 37, 37, 256)       295168    \n","_________________________________________________________________\n","block3_conv2 (Conv2D)        (None, 37, 37, 256)       590080    \n","_________________________________________________________________\n","block3_conv3 (Conv2D)        (None, 37, 37, 256)       590080    \n","_________________________________________________________________\n","block3_pool (MaxPooling2D)   (None, 18, 18, 256)       0         \n","_________________________________________________________________\n","block4_conv1 (Conv2D)        (None, 18, 18, 512)       1180160   \n","_________________________________________________________________\n","block4_conv2 (Conv2D)        (None, 18, 18, 512)       2359808   \n","_________________________________________________________________\n","block4_conv3 (Conv2D)        (None, 18, 18, 512)       2359808   \n","_________________________________________________________________\n","block4_pool (MaxPooling2D)   (None, 9, 9, 512)         0         \n","_________________________________________________________________\n","block5_conv1 (Conv2D)        (None, 9, 9, 512)         2359808   \n","_________________________________________________________________\n","block5_conv2 (Conv2D)        (None, 9, 9, 512)         2359808   \n","_________________________________________________________________\n","block5_conv3 (Conv2D)        (None, 9, 9, 512)         2359808   \n","_________________________________________________________________\n","block5_pool (MaxPooling2D)   (None, 4, 4, 512)         0         \n","=================================================================\n","Total params: 14,714,688\n","Trainable params: 0\n","Non-trainable params: 14,714,688\n","_________________________________________________________________\n"],"name":"stdout"}]},{"cell_type":"markdown","metadata":{"id":"ocd8m_sfFWDx"},"source":["Why not fine-tune more layers? Why not fine-tune the entire convoluti
…
