…
:300,"elapsed":588,"user":{"displayName":"Moz Art","photoUrl":"https://lh3.googleusercontent.com/a-/AOh14GjFeFGBLCPhJx0TGfp9G43Bbtbx_EPu35Hi9U26pA=s64","userId":"13730485640895429178"}},"outputId":"cd2dc892-3bf1-4396-f2cb-333a517483b4"},"source":["model.summary()\n"],"execution_count":null,"outputs":[{"output_type":"stream","text":["Model: \"sequential\"\n","_________________________________________________________________\n","Layer (type)                 Output Shape              Param #   \n","=================================================================\n","conv2d (Conv2D)              (None, 148, 148, 32)      896       \n","_________________________________________________________________\n","max_pooling2d (MaxPooling2D) (None, 74, 74, 32)        0         \n","_________________________________________________________________\n","conv2d_1 (Conv2D)            (None, 72, 72, 64)        18496     \n","_________________________________________________________________\n","max_pooling2d_1 (MaxPooling2 (None, 36, 36, 64)        0         \n","_________________________________________________________________\n","conv2d_2 (Conv2D)            (None, 34, 34, 128)       73856     \n","_________________________________________________________________\n","max_pooling2d_2 (MaxPooling2 (None, 17, 17, 128)       0         \n","_________________________________________________________________\n","conv2d_3 (Conv2D)            (None, 15, 15, 128)       147584    \n","_________________________________________________________________\n","max_pooling2d_3 (MaxPooling2 (None, 7, 7, 128)         0         \n","_________________________________________________________________\n","flatten (Flatten)            (None, 6272)              0         \n","_________________________________________________________________\n","dense (Dense)                (None, 512)               3211776   \n","_________________________________________________________________\n","dense_1 (Dense)              (None, 1)                 513       \n","=================================================================\n","Total params: 3,453,121\n","Trainable params: 3,453,121\n","Non-trainable params: 0\n","_________________________________________________________________\n"],"name":"stdout"}]},{"cell_type":"code","metadata":{"id":"jsjZEWJ9fE41"},"source":["\n","\n","\n","\n","## Looking at Matematics of various  Loss fuctions \n","#
…
  steps_per_epoch=5,\n","      epochs=100,\n","      validation_data=validation_generator,\n","      validation_steps=5)\n","\n","\n","\n","plotResult(history)\n","\n","\n"],"execution_count":null,"outputs":[{"output_type":"stream","text":["Found 2000 images belonging to 2 classes.\n","Found 1000 images belonging to 2 classes.\n","Model: \"sequential_2\"\n","_________________________________________________________________\n","Layer (type)                 Output Shape              Param #   \n","=================================================================\n","conv2d_8 (Conv2D)            (None, 148, 148, 32)      896       \n","_________________________________________________________________\n","max_pooling2d_8 (MaxPooling2 (None, 29, 29, 32)        0         \n","_________________________________________________________________\n","dropout_1 (Dropout)          (None, 29, 29, 32)        0         \n","_________________________________________________________________\n","flatten_2 (Flatten)          (None, 26912)             0         \n","_________________________________________________________________\n","dense_4 (Dense)              (None, 50)                1345650   \n","_________________________________________________________________\n","dropout_2 (Dropout)          (None, 50)                0         \n","_________________________________________________________________\n","dense_5 (Dense)              (None, 1)                 51        \n","=================================================================\n","Total params: 1,346,597\n","Trainable params: 1,346,597\n","Non-trainable params: 0\n","_________________________________________________________________\n"],"name":"stdout"},{"output_type":"stream","text":["/usr/local/lib/python3.6/dist-packages/tensorflow/python/keras/engine/training.py:1844: UserWarning: `Model.f
…
