…
"execution_count":null,"outputs":[]},{"cell_type":"markdown","metadata":{"id":"VwJ1uJdJvXyu"},"source":["Let's display the architecture of our convnet so far:"]},{"cell_type":"code","metadata":{"id":"tmVHvMmJvXyv","outputId":"9a090cc9-b2e3-4e7c-dd2b-cd9a4266f95b"},"source":["model.summary()"],"execution_count":null,"outputs":[{"output_type":"stream","text":["_________________________________________________________________\n","Layer (type)                 Output Shape              Param #   \n","=================================================================\n","conv2d_1 (Conv2D)            (None, 26, 26, 32)        320       \n","_________________________________________________________________\n","max_pooling2d_1 (MaxPooling2 (None, 13, 13, 32)        0         \n","_________________________________________________________________\n","conv2d_2 (Conv2D)            (None, 11, 11, 64)        18496     \n","_________________________________________________________________\n","max_pooling2d_2 (MaxPooling2 (None, 5, 5, 64)          0         \n","_________________________________________________________________\n","conv2d_3 (Conv2D)            (None, 3, 3, 64)          36928     \n","=================================================================\n","Total params: 55,744\n","Trainable params: 55,744\n","Non-trainable params: 0\n","_________________________________________________________________\n"],"name":"stdout"}]},{"cell_type":"markdown","metadata":{"collapsed":true,"id":"wCkh1wYEvXyv"},"source":["You can see above that the output of every `Conv2D` and `MaxPool
…
ce":["We are going to do 10-way classification, so we use a final layer with 10 outputs and a softmax activation. Now here's what our network \n","looks like:"]},{"cell_type":"code","metadata":{"id":"gRP6P9RdvXyx","outputId":"f67a8636-e4bc-4724-8d51-67380611c054"},"source":["model.summary()"],"execution_count":null,"outputs":[{"output_type":"stream","text":["_________________________________________________________________\n","Layer (type)                 Output Shape              Param #   \n","=================================================================\n","conv2d_1 (Conv2D)            (None, 26, 26, 32)        320       \n","_________________________________________________________________\n","max_pooling2d_1 (MaxPooling2 (None, 13, 13, 32)        0         \n","_________________________________________________________________\n","conv2d_2 (Conv2D)            (None, 11, 11, 64)        18496     \n","_________________________________________________________________\n","max_pooling2d_2 (MaxPooling2 (None, 5, 5, 64)          0         \n","_________________________________________________________________\n","conv2d_3 (Conv2D)            (None, 3, 3, 64)          36928     \n","_________________________________________________________________\n","flatten_1 (Flatten)          (None, 576)               0         \n","_________________________________________________________________\n","dense_1 (Dense)              (None, 64)                36928     \n","_________________________________________________________________\n","dense_2 (Dense)              (None, 10)                650       \n","=================================================================\n","Total params: 93,322\n","Trainable params: 93,322\n","Non-trainable params: 0\n","_________________________________________________________________\n"],"name":"stdout"}]},{"cell_type":"markdown","metadata":{"id":"3fiifP7NvXyy"},"source":["As you can see, our `(3, 3, 64)` outputs were flattened into vectors of shape `
…
